…
"}},"outputId":"d382abea-0dc2-4b39-cad1-7829e37339fd"},"execution_count":7,"outputs":[{"output_type":"stream","name":"stderr","text":["WARNING:absl:`lr` is deprecated in Keras optimizer, please use `learning_rate` or use the legacy optimizer, e.g.,tf.keras.optimizers.legacy.Adam.\n"]},{"output_type":"stream","name":"stdout","text":["Model: \"sequential\"\n","_________________________________________________________________\n"," Layer (type)                Output Shape              Param #   \n","=================================================================\n"," conv2d (Conv2D)             (None, 126, 126, 32)      896       \n","                                                                 \n"," max_pooling2d (MaxPooling2  (None, 63, 63, 32)        0         \n"," D)                                                              \n","                                                                 \n"," conv2d_1 (Conv2D)           (None, 61, 61, 64)        18496     \n","                                                                 \n"," max_pooling2d_1 (MaxPoolin  (None, 30, 30, 64)        0         \n"," g2D)                                                            \n","                                                                 \n"," conv2d_2 (Conv2D)           (None, 28, 28, 128)       73856     \n","                                                                 \n"," max_pooling2d_2 (MaxPoolin  (None, 14, 14, 128)       0         \n"," g2D)                                                            \n","                                                                 \n"," flatten (Flatten)           (None, 25088)             0         \n","                                                                 \n"," dense (Dense)               (None, 512)               12845568  \n","                                                                 \n"," dropout (Dropout)           (None, 512)               0         \n","                                                                 \n"," dense_1 (Dense)             (None, 1)                 513       \n","                                                                 \n","=================================================================\n","Total params: 12939329 (49.36 MB)\n","Trainable params: 12939329 (49.36 MB)\n","Non-trainable params: 0 (0.00 Byte)\n","_________________________________________________________________\n"]}]},{"cell_type":"code","source":["# Membuat callback Early
…
